tracker-neuralnet/models/head-localizer.onnx (onnx, 279403 bytes, 82 tensors)

604 f4 [8, 1, 3, 3]
00000000: d3d8 923e 549d e83e 74b1 db3e 096c 30be
00000010: fecd 173f 3ecf 113f 499c bbbe 5b78 903e
00000020: 0f44 823d 61fa 843d cbf6 6f3d ce1d 1ebe
00000030: 4fd6 68be f67f 9bbe 75b5 b5be de4e 8fbe
00000040: 87cd 1abf 6ce3 89be 4954 febe ed15 193f
00000050: 6b9b c23f 9653 0f3f a7b8 c83f aa57 8a3f
00000060: 3495 183e 088e 10c0 ded9 1fc0 8865 1bbe
00000070: f741 12bf 5b36 ffbc fa7e 55bf 9e0f 333f
00000080: 8f7a 4e3f c1f6 26bc a631 243f aa36 b23f
00000090: cc5c 823e 29d6 4a3e c08f dbbd c711 0f3f
000000a0: 8b39 aa3e 0374 06be fe55 b33e 6ab2 813e
000000b0: 9263 dfbc 1a21 66be 2a19 933e f162 e7bc
000000c0: 21e2 89be 85c1 5ebf dc30 11bc 3206 d1be
000000d0: 3e33 36bf 681e 73be 850d 9e3e 40c4 c4bd
000000e0: 1ff4 96be 5dc8 c63e 42b2 093f bd78 4b3e
000000f0: 0307 abbd 8ada 053f e0e2 d33e 9e1a 203e
00000100: 5794 d4be a7b5 59be f886 dbbd 8a82 54bf
00000110: 260d 15bf 6149 f2bd 4b40 bbbe 802e b4be
0.2868105 0.45432532 0.42908823 -0.17228712 0.59298694 0.5695685 -0.36642674 0.28216824
0.063606374 0.064930685 0.05858497 -0.15441057 -0.22738002 -0.30371064 -0.35490003 -0.27989858
-0.6046986 -0.26931322 -0.4967368 0.5979908 1.520368 0.55986917 1.5681351 1.0808003
0.14900666 -2.258669 -2.4976726 -0.1517545 -0.57131904 -0.031153848 -0.83396876 0.69945705
0.8065576 -0.010190667 0.6413826 1.3922932 0.25461423 0.19808258 -0.107207775 0.558865
0.33247027 -0.13130192 0.35026544 0.25331432 -0.027269159 -0.22473565 0.28730136 -0.028245421
-0.26930335 -0.8701404 -0.008861747 -0.4082504 -0.7117194 -0.23742068 0.3086969 -0.09607744
-0.29483125 0.3882474 0.53787625 0.19870277 -0.08350947 0.5228659 0.4138403 0.15635154
-0.41519424 -0.21260701 -0.107191026 -0.83011687 -0.5822319 -0.11830402 -0.3657249 -0.35191727

605 f4 [8]
00000000: f153 a63b e73e a7bd 6e34 d53e 38d8 b03d
00000010: 63a1 ba3e 0c4a aa3b 62d5 8a3e 7064 963d
0.0050759246 -0.081662945 0.41641563 0.086349905 0.36451253 0.0051968154 0.27115923 0.07343376

607 f4 [8, 1, 3, 3]
00000000: 5d67 0d3f fd0b 64bf 6733 1e3f 9cb4 5fbd
00000010: f57e dfbf 902a 7dbf c4e7 1e3d 08ff 513f
00000020: eb00 9dbe f9bb 1fbf 9cd9 9540 dbcc 0640
00000030: 2fa2 a4be 01c4 933f d806 bfbf 3c28 87bf
00000040: 3c0a cc3e 1d91 cbbf 7998 ca3e 62c5 333f
00000050: 1028 c7bd 4eca 613f 9202 973f 1d34 cb3e
00000060: 5412 a7bf 9c4e d4bf 4e5d c6be 5800 ca3e
00000070: 5267 5f3e 4453 2abd 84e6 17be 0f9c 3a3f
00000080: a11f c0bf 409f 053e 4abf 93bf 7427 64bf
00000090: c8f9 c23d 51e8 cdbd 1b2c 2740 f687 823f
000000a0: 8660 c13e 45d8 763f aebe 47bf 61fd 93bd
000000b0: cb8b 15c0 e1c5 6a3e a4d7 f0bf cf72 9bbf
000000c0: 32dc 6fbf aaaf 6cbd 61a3 34bf 6e67 ae3f
000000d0: 2acc 813e e727 1c3f 2dee 43bf ceb6 853e
000000e0: 5e72 c4bf 7887 463f 6e2a b63f cf18 d2bf
000000f0: b8db 913f 77aa 0840 b2e6 2a3c 6ba2 f03e
00000100: be13 a2bf 8dcc 9abf 07d4 b73e 71da 27bf
00000110: dbcf 54be fda7 f23f 5103 ef3f aef7 fe3e
0.55235845 -0.8908079 0.61797184 -0.054615602 -1.7460619 -0.9889307 0.038795248 0.8202977
-0.30664763 -0.623962 4.6828136 2.1062534 -0.32154986 1.1544191 -1.4923964 -1.0559154
0.39851558 -1.590366 0.39569452 0.7022306 -0.09724438 0.8819932 1.1797659 0.39688197
-1.3052468 -1.658649 -0.3874306 0.39453387 0.21816757 -0.041583315 -0.14834028 0.72894377
-1.5009652 0.1304903 -1.1542752 -0.891227 0.09520298 -0.100540765 2.612067 1.0197742
0.37768954 0.9642375 -0.7802533 -0.072260626 -2.3366573 0.22927047 -1.8815808 -1.2144412
-0.93695366 -0.057784714 -0.70561796 1.3625314 0.25351077 0.60998386 -0.765353 0.2611603
-1.5347402 0.7755046 1.4231699 -1.6413821 1.1395178 2.1354043 0.010430979 0.46998915
-1.2662275 -1.2093674 0.35903952 -0.6556769 -0.20782416 1.8957516 1.8672887 0.4979834

608 f4 [8]
00000000: 870f f73e a250 23bf 8672 37be bc3a 553f
00000010: b819 85be 5bf3 4f3f 363f b0be 5240 2bbe
0.48254034 -0.6379491 -0.17914781 0.83292747 -0.25996184 0.81230706 -0.34423226 -0.16723755

610 f4 [8, 8, 1, 1]
00000000: ac4e 193f 28a0 343f 2b11 11be fe26 3c3e
00000010: 2b5d 08bf 3af9 10bf 4915 773f f199 20bf
00000020: bdba 483f 49d2 a63f 455c d7be 5bf8 7abe
00000030: 1988 5ebf 9914 ea3d bbc4 f63e 60c6 9fbf
00000040: 7c23 a9be 27a9 0d3d 3df9 17bf 62db 86bd
00000050: 3a06 353e c9c5 a23e ba8a 003f 9770 f8be
00000060: 6c09 d7bd 180c 323f 066f 413f 97c6 953e
00000070: d185 39be 33da 75bf c5d8 f63e 4dac 2dbf
00000080: 2faf 0b3e ba7b 013f 727d a5bd 8f31 83bf
00000090: 5467 90bf a58f 17bf 605a 9e3e 913c a83d
000000a0: 28d8 01bf e6b3 143f c1cd 29bd 7efc 1abb
000000b0: 7e82 faba b706 973d f995 fdbe c924 1f3f
000000c0: 3c2f b33e 74cd 16bf aeec d03e 798f 173d
000000d0: 617a f5be 84be 3a3f d5b4 b8be 2ecf 09bf
000000e0: 838e 1f3e ae12 8dbe f521 aabd 75e6 073f
000000f0: a278 0fbf 04b1 b7be 669b a53e 290a 093f
0.5988567 0.7055688 -0.14166705 0.1837425 -0.53267163 -0.5663029 0.96516854 -0.62734896
0.7840994 1.3032924 -0.42062584 -0.24508803 -0.8692642 0.1142971 0.48196968 -1.2482414
-0.33034885 0.034585144 -0.5936468 -0.06584813 0.17678156 0.31791523 0.5021168 -0.485234
-0.10499844 0.69549704 0.75560033 0.29253075 -0.18117453 -0.9603607 0.48212257 -0.67841035
0.13641046 0.50579417 -0.080805674 -1.0249499 -1.1281533 -0.5920356 0.30928326 0.08214677
-0.50720453 0.58087003 -0.041455988 -0.0023649032 -0.0019112376 0.07374328 -0.49528483 0.62165505
0.34996974 -0.58907247 0.40805572 0.03700206 -0.4794493 0.72946954 -0.36075464 -0.53831756
0.15581708 -0.27553314 -0.08307258 0.53086025 -0.56043446 -0.3587724 0.32345122 0.5353113

611 f4 [8]
00000000: 3b9d d7bd 08fe b63e 3796 953a 2348 f53d
00000010: ce1d 823f 2e66 82be 8db6 0c3f f551 0fbe
-0.10528036 0.35740685 0.0011412565 0.119766496 1.0165346 -0.25468582 0.5496605 -0.13996108

613 f4 [16, 8, 1, 1]
00000000: f928 9bbd bd88 c1bd 65e5 9fbc 3832 183d
00000010: 2562 843c 0737 a83d dfd1 2f3d f628 003c
00000020: 89f5 c3bd 658c bfbc ebce e73c a6b6 0b3d
00000030: c5c3 89bd e1d7 a53d 6381 2abd 1670 d5bd
00000040: e511 8cbe 3f06 70bd 34cb 1d3e 4e0b b2bb
00000050: 7efb a6bc e0df e53d b185 4c3d 705a 2dbe
00000060: 4234 e73d acf0 473e f5fb 1f3d 1c5d e63d
00000070: 59dc de3d d5d6 acbc 02ae 93bb f8f0 a7bd
00000080: 53c1 c2be aff1 843e 52e0 a83d ec17 72be
00000090: 17c5 55bd 3c2f 873d 31a2 573d 6346 82be
000000a0: d390 2bbc 194c a03d 5f94 543e 5f3f 9c3d
000000b0: b862 70be 512f 26be a680 b3bd c8ff 003e
000000c0: c9bd 4abe b6a0 c0be afdf fb3d a151 6cbc
000000d0: 6a51 873d 9475 243e 9505 52be 5ee1 09be
000000e0: e791 493d 9fe0 263e c485 80be ceb6 ed3d
000000f0: cba0 d7bc ed7a 1c3d b12c 8cbd 86b0 1e3e
00000100: 8199 bb3c 2846 b4bb c832 7e3a 0b8e f4bd
00000110: fbb4 8e3d a463 b13e 35ab 57be c5e6 123e
00000120: ff84 903b ed94 6bbe 02e2 8fbe 3eec e53d
00000130: 042e 0fbe 69b4 f0bd 6462 a3bb 384a ffbb
00000140: c224 c13d 4cca 813e 4e11 1c3e dccf d5bc
00000150: 077d 3d3e 6c6a 33be 388d d2bb c505 7f3d
00000160: 1907 0abe 7530 2abe c37c a4bd 6ad2 e43d
00000170: 7260 27bd 7a55 b7bd 88c7 83bd 7b44 883a
00000180: 7436 893d b16b 433e 9c99 243d a76f 8d3d
00000190: e7d3 88bc a931 f33b ac63 0dbd 61e7 423d
000001a0: d067 82bc 3139 243e 64d9 c9bc 9cf0 dc3d
000001b0: 70f4 3c3e c6a7 8b3d db0a 17be de02 09be
000001c0: 58ee 1c3d 72d6 e9bd c8d7 3cbd ceb2 99bd
000001d0: 1284 7dbe af2e 1fbe 24f7 973c 482e ef3c
000001e0: 115f cc3d d232 acbd 1643 223e 368c 07be
000001f0: 704b a1be 0d94 8c3d 1997 13bd b7a7 a0bd
-0.07576174 -0.09449909 -0.019518564 0.037157267 0.01616008 0.08213621 0.042924758 0.007822266
-0.095683165 -0.023382375 0.028296908 0.034109734 -0.06726793 0.08097816 -0.0416273 -0.10421769
-0.27357402 -0.058599707 0.15409547 -0.0054334765 -0.020383593 0.112243414 0.049932186 -0.1692903
0.11289264 0.19525403 0.039058644 0.11248228 0.10881872 -0.021098534 -0.0045068273 -0.08200258
-0.3803812 0.2596564 0.08245911 -0.23641938 -0.052189913 0.06600806 0.052644912 -0.25444326
-0.0104715405 0.078270145 0.20759724 0.076292746 -0.23475158 -0.16228987 -0.08764772 0.12597573
-0.1979896 -0.37622613 0.12298524 -0.014423759 0.066073254 0.16060477 -0.20509942 -0.13464877
0.04921141 0.16296624 -0.25102055 0.11607133 -0.02632179 0.03820317 -0.06844462 0.15497026
0.022900345 -0.0055015273 0.0009696898 -0.11941155 0.06968113 0.34646332 -0.21061404 0.14345844
0.0044103856 -0.2300603 -0.28102118 0.112267 -0.13982397 -0.117531605 -0.0049860943 -0.00779083
0.09430839 0.25349653 0.15240976 -0.026100092 0.18504725 -0.17521065 -0.006425526 0.06226136
-0.1347927 -0.16620047 -0.08031609 0.11172946 -0.04086346 -0.0895185 -0.06434542 0.0010396385
0.06699839 0.1908405 0.040185556 0.069060616 -0.016702605 0.0074216914 -0.034518883 0.04758394
-0.015918642 0.16037442 -0.024639793 0.1078808 0.1845262 0.068191096 -0.14750235 -0.1338
0.03831324 -0.11417855 -0.046104223 -0.075048074 -0.24757412 -0.15545152 0.018550463 0.029196873
0.0997907 -0.08408131 0.15845904 -0.1323708 -0.31502867 0.06864176 -0.03603277 -0.07844489

614 f4 [16]
00000000: 0bf2 2b3e 99bf 1dbe 17e8 e33d e695 603e
00000010: ee68 463e 088f 183e 6ad9 673d 7dd5 393e
00000020: efaa c73b 542d 74bd bd66 183e 7e8e afbd
00000030: 88d3 ed3e 078e 0a3e a39c 7d3d 0447 0fbd
0.16791551 -0.1540512 0.11128252 0.21932182 0.19375965 0.14898312 0.056603827 0.18147846
0.006093375 -0.05961354 0.14882942 -0.085721 0.46450448 0.13530742 0.06191696 -0.034979835

616 f4 [16, 1, 3, 3]
00000000: 0d80 1940 6619 5840 dcea dfbf 64ad c33f
00000010: 7ec9 4ec0 f5dc d7bf 31b1 7fbe d312 82bf
00000020: ee26 62be 61ee 2840 4607 8d3f 0afb dcbf
00000030: 80f3 45c0 61a2 98c0 4f5f 063d 1f33 54bf
00000040: 2f28 da3f 42a2 f5bf fa66 c0bf 6ec0 c3be
00000050: 6894 6c3f c39c 2a3f 576d 36bf a58f d5bf
00000060: d6ef 3440 0b3e 17bf 9734 263e 9f88 603e
00000070: 81ea 143f e2af 9a3d 61a5 143f 8985 bf3f
00000080: 2901 1c3f 616e f93d a6f1 d83e b836 72bc
00000090: 7a75 323f 1d9c 7b3f f068 803d 08ea ba3e
000000a0: e186 853f cdb5 df3e 7df9 31bf 1154 b9be
000000b0: 66a1 e0be 7262 f2bf 845b 3bbf 0441 2840
000000c0: b70a 8ebf 1482 4a3f 36ad b03f 791d c8bf
000000d0: ea75 1840 6708 bebe a67b d0bf 6a8f ff3e
000000e0: 8c4e 373f 6506 96bf f222 b93e 10f9 e23f
000000f0: dce6 c7be 2a3b d53e 85fc bb3e c873 483f
00000100: 25a6 8ebe 94aa 96be 2751 46be 9e03 a6be
00000110: f861 18bf 17d0 bdbe 09ff d7be 78d6 2bbf
00000120: c6db c93d c3fd f73e 44f4 393f 7f57 59bd
00000130: a46a 2a3f 928f 333f f3a1 643d 8e5c f2bd
00000140: c5c1 673e 61b8 11bf be03 073d 8818 12bf
00000150: 5b0e b73f b664 0340 ada7 85be 0a22 c93d
00000160: ccb1 c13e 86d2 c13e 3cb4 393d d2f9 eabe
00000170: ace3 0fbf 3316 95be e376 64bf cb76 c8be
00000180: 1974 d7be 9c08 1bbf 309f 49be a461 05be
00000190: 81a0 eebf d840 5dbf 9398 c2be d519 febd
000001a0: 94df b5be 8681 563f a4e4 e43f d2ca 9e3f
000001b0: 3592 edbe 3ae7 bfbf 0e6f 37bf d8d7 973f
000001c0: ddf5 53be c0d0 aabf de06 c93f 4b08 a23f
000001d0: c36e f3be b1dd 043f 0576 ab3f 6275 1cbd
000001e0: e05f cc3f eab6 1fbe 7e80 93bf 3f6a 943f
000001f0: 6c75 41bf dc5d b5be ccdd 68bf e0b5 87bf
00000200: fd0e b7bd debf 16c0 bba5 8f3e f3ea 19be
00000210: bf88 b7bd c96b b63e fb85 ad3d a9f8 c0bc
00000220: 4af2 613d 64a4 513f f458 d23e 8fb9 2e3f
00000230: 4f89 273f c851 38bd 2420 aa3e e101 e13e
2.3984406 3.3765502 -1.7493548 1.528729 -3.231048 -1.6864306 -0.24969937 -1.0161995
-0.22085163 2.6395495 1.1017845 -1.7264111 -3.092987 -4.7698216 0.032805737 -0.82890505
1.7043513 -1.9190142 -1.5031426 -0.3823275 0.9241395 0.6664545 -0.7126059 -1.6684462
2.8271384 -0.59079045 0.16230999 0.21927117 0.58170325 0.07553078 0.5806485 1.4962627
0.6093927 0.12179256 0.42371863 -0.014783554 0.69710505 0.98285085 0.06270015 0.36506677
1.0431787 0.4369339 -0.69521314 -0.3619695 -0.43873137 -1.8936293 -0.73186517 2.6289682
-1.109702 0.79104733 1.380286 -1.5633994 2.382197 -0.37115785 -1.6287735 0.49914104
0.7160423 -1.1720701 0.36159474 1.7732258 -0.3904332 0.416467 0.36716095 0.7830167
-0.27861133 -0.29427016 -0.19366895 -0.32424635 -0.5952449 -0.37072822 -0.42186764 -0.6712413
0.098563716 0.48435792 0.72638345 -0.05306196 0.6656897 0.70140946 0.05581851 -0.1183406
0.22632511 -0.56921965 0.032962553 -0.5706868 1.4301256 2.053022 -0.2610449 0.098209456
0.3783096 0.3785593 0.0453379 -0.45893723 -0.56206775 -0.291185 -0.89243907 -0.39153132
-0.42080763 -0.6056001 -0.19689631 -0.13025528 -1.8642732 -0.8642707 -0.3800703 -0.12407271
-0.3552214 0.8379139 1.7882276 1.2405646 -0.4640061 -1.499244 -0.7165383 1.1862745
-0.20699258 -1.3344955 1.5705221 1.2658781 -0.47545442 0.51900774 1.3395392 -0.038197882
1.5966759 -0.1559712 -1.1523588 1.1594924 -0.75569797 -0.35423172 -0.90963435 -1.0602379
-0.08938406 -2.3554606 0.2805613 -0.15031032 -0.08961629 0.3562911 0.0847282 -0.02355607
0.055162705 0.81891465 0.4108349 0.6825189 0.6544389 -0.044999868 0.33227646 0.43946746

617 f4 [16]
00000000: d47f e63d 3487 70bd 4091 123a 02ec 34bf
00000010: 54e5 f3be 4049 1cbd 28fa 7e3d 95b7 333f
00000020: 2bc0 debe dc5a ccbd 90e5 a83f acac 0ebc
00000030: 2654 5c3f 4a07 91be ee9f 7c3f 558e 38bf
0.1125485 -0.05872269 0.0005591102 -0.7067262 -0.476359 -0.038155794 0.062250286 0.70202
-0.43505988 -0.099782676 1.3195057 -0.00870816 0.860659 -0.28325874 0.98681533 -0.7209218

619 f4 [12, 16, 1, 1]
00000000: a2ee 3d3d 248a 5b3e 05f9 57bd 77d4 5c3e
00000010: 1bf5 333e e322 2cbe 5bfd 993e 86f1 d4be
00000020: db05 173f fddb 873e 4664 ba3e 5f83 c2be
00000030: b2c5 0e3f f8c3 76be 8538 ecbe 32b3 923c
00000040: 9091 dfbd ebf7 8bbe 0fd6 013d 7caf c6be
00000050: 570a 773d 709b afbe a06c c83e 15e6 7dbe
00000060: 6ddf d6bd 640e 183e 1ae7 5d3d 30bb bc3e
00000070: af2a ff3a edf6 97be 9974 19be 637c 8e3e
00000080: a912 983e c77e 7e3d a23d ff3d 7dd7 81bd
00000090: 5fd1 813c 608b 4b3c 1885 78be 93ed 49be
000000a0: 3417 03be 63d2 403e c32e 503d b96e 8e3e
000000b0: 8882 86bf dee4 3d3e ac6e 523e 5216 19be
000000c0: a05d 1e3e 45d4 83bd a5ce 5c3e e355 c83d
000000d0: a0f4 b8be 30c6 50be 169d c73e 3d82 24be
000000e0: 6cd0 963e 813d 093e 3f6c aebe 29ef 003e
000000f0: f70e b83e 2fac bd3e f5c7 2cbc c39d 76be
00000100: 7702 85be 3e59 5cbe 0a6f c03b 12d3 853e
00000110: 2963 f3ba 5ad0 eabe eecb eabd 3689 7b3e
00000120: 0f4d 6bbc be27 bdbe 42b1 47be 430a 45be
00000130: c7e4 9ebe f59b 983e f4ed 913e dc27 0cbe
00000140: c0f6 e6be dc36 7abe 0180 483d 8824 e6be
00000150: 633d 9dbd a36f d43d d7ea eebd 1754 aebe
00000160: 4a05 c03e 131c 77be e124 1b3f 1241 4e3e
00000170: 6ba6 fabe 0a65 23be 4f23 88be be57 ba3e
00000180: ff92 fa3c 8f4d 5f3e 0bee 0fbe a32d c9be
00000190: 284c 703e 8e01 863e 5b83 a3be 178c 18be
000001a0: 24f8 80be cc05 893e 5e32 e43d 3e74 3dbe
000001b0: 1964 fc3c 4b90 ec3d 5d7b 85be 03c7 453e
000001c0: b85c d3bc 6013 32bd 4c0b adbd 377b bfbd
000001d0: 34a3 8c3e f641 f4be cfe1 95be 9146 66be
000001e0: e074 c43e f979 033f b369 fc3e 6efb 833e
000001f0: 81ec ed3e 5288 82be 0c3e 44bd 88d8 803e
00000200: 5927 4bbe bb12 6e3e 19a5 c6bd 857e c73e
00000210: 983a 79be 4c27 04bf 22a1 eabe 2a6e 03be
00000220: 1a92 c93d 14be a0be 9ad9 f2be d887 a6be
00000230: 1dfb 6bbe 68ac 2fbf c04e a5be 62a6 9a3d
00000240: 89a7 1bbd dae9 7c3e 9db4 1f3f f034 9b3e
00000250: 8f1d 813e 6db0 123d 8aa1 54bc b6a4 f23d
00000260: 74c2 84be 8957 1a3e 2f7e e0be 47c5 d33d
00000270: 6140 313d fbb7 93be a786 0dbf 33d7 c93e
00000280: b158 e4bd efb3 7fbe 774e 723e 7d5a 273f
00000290: a574 cebe 1c0c 803e d17c 9d3e 02a0 ab3e
000002a0: 6731 f0be 79ff 0d3e 7470 0abf d614 b9be
000002b0: 980c 8fbe 50f1 503c 81c0 51be 2614 d43e
000002c0: 267c 6fbc d0c9 c1bc ba28 30bc 4095 d23e
000002d0: ad61 9fbd dcf5 24be a949 f4be e627 8abe
000002e0: 41ad fa3e 552c 4a3e 7dab 79be d5c0 38be
000002f0: 7a9f 9d3d 73a9 913e d895 80be ad37 a4bd
0.046370156 0.21439415 -0.052727718 0.21565424 0.17573969 -0.16810183 0.30076107 -0.41590518
0.5899331 0.26535025 0.36404628 -0.37990853 0.5577041 -0.24098194 -0.4613687 0.017907713
-0.10916436 -0.27337584 0.031698283 -0.3880576 0.060312595 -0.34298277 0.39145374 -0.247948
-0.10491834 0.1484924 0.054175474 0.36861563 0.0019467677 -0.29680577 -0.14985885 0.27829275
0.29701737 0.062132623 0.124629274 -0.06339929 0.015846906 0.012423366 -0.24269521 -0.19719534
-0.1280182 0.18830256 0.050825845 0.2781885 -1.0508585 0.18544337 0.2055003 -0.14949921
0.15465403 -0.064369716 0.21563204 0.097820066 -0.36124134 -0.20388103 0.38987035 -0.16065307
0.29455888 0.13402368 -0.3406696 0.12591232 0.35948917 0.37045428 -0.01054572 -0.24083619
-0.25978443 -0.21518418 0.005872612 0.26137596 -0.0018568981 -0.45862085 -0.11464678 0.2456406
-0.014361634 -0.36944383 -0.19501212 -0.19242196 -0.31033918 0.29806486 0.28501856 -0.1368708
-0.4511013 -0.2443499 0.0489502 -0.44949746 -0.07677724 0.103728555 -0.11665886 -0.3404853
0.37504035 -0.24131803 0.6060315 0.2014201 -0.48955092 -0.15956512 -0.26589438 0.36395067
0.030587671 0.2180693 -0.1405565 -0.3929263 0.23466551 0.2617306 -0.31936154 -0.1489719
-0.25189316 0.26762235 0.11142419 -0.18501374 0.030809449 0.11550959 -0.2607068 0.19314198
-0.025801048 -0.04347551 -0.0844942 -0.09349673 0.27468264 -0.47706574 -0.2927384 -0.22487856
0.3837042 0.5135799 0.49299392 0.25777763 0.464695 -0.2549463 -0.047910735 0.251652
-0.19839229 0.23249333 -0.09699459 0.38963714 -0.24338758 -0.5162246 -0.4582606 -0.12834993
0.0984232 -0.31395018 -0.47431642 -0.32525516 -0.23045011 -0.68622446 -0.32286644 0.07551266
-0.03800157 0.24698582 0.6238497 0.30313826 0.25217864 0.035812784 -0.012977967 0.11847822
-0.25929606 0.15072455 -0.4384627 0.10340362 0.043274287 -0.28851303 -0.5528359 0.39421996
-0.11149729 -0.24970983 0.23662744 0.6537245 -0.40323368 0.2500924 0.3075929 0.33520514
-0.4691269 0.13866986 -0.5407784 -0.3614871 -0.27939296 0.012752846 -0.2048359 0.41421622
-0.014617002 -0.023655802 -0.0107518975 0.41129494 -0.07782302 -0.16109413 -0.47712448 -0.26983565
0.48960307 0.19743474 -0.24381824 -0.1804231 0.07696433 0.28449592 -0.25114322 -0.08018432

620 f4 [12]
00000000: 5f94 36bf dbe2 a93e 1b11 2d3f 41db b4be
00000010: 8846 af3e 6094 e33e 6bd9 813e 6d7a 0bbf
00000020: 936c a53f da85 9d3d b1b4 9d3d 1b5c 97bc
-0.71320146 0.3318089 0.67604226 -0.35323527 0.342335 0.4444914 0.2536119 -0.5448368
1.2923759 0.07691546 0.0770048 -0.018476536

622 f4 [24, 12, 1, 1]
00000000: 7e65 d53d 4d62 e3bd 71f5 a2bd 7075 3fbd
00000010: 9976 dfbb 049b 70bc fd86 b5bd 3457 373e
00000020: 53e8 5dbd 4c9f 283e 1fa8 013e 0989 813d
00000030: 3966 4d3e 502c 3cbd e1e4 0cbe f8ce a13d
00000040: 7f79 37be 820a 08be f4c9 2b3d 99fc c1bd
00000050: 7100 9cbd 65e4 0d3e 6e16 0c3d d104 0e3e
00000060: cbfd a7bd 0236 833d b8df 513c 7377 d7bd
00000070: 3032 b43b a4e3 b63d 796d 1cbd a194 5ebd
00000080: f4bd 14bd 8691 05bd 0535 2a3e 6644 0dbe
00000090: 0d6b 453b 65c8 6bbd f7cb 3b3c 2ed4 b6bd
000000a0: 4b48 253c cc46 01bd 53e1 703d 2196 9c3d
000000b0: 8f7e 67bd 44af 673c 5d7c acbd a0e4 06bc
000000c0: 09ad c4bd cebe 99bd 353f b33d 77ba 82bc
000000d0: 29f3 2c3d b637 bf3c 0c46 c23b c1d1 84bd
000000e0: 07ac fb3b 6573 8a3d 1a89 e93c 3e68 a83c
000000f0: 503b cebd 4b3f dbbc 277c acbc 4ffa 873c
00000100: d882 403d 3e72 233c 7655 2dbd bb4b b8bd
00000110: 0f4d a23d a580 0c3d 164f ddbc 26f3 ccbc
00000120: f6c5 013d 7ecd 6cbd a6ec 723d 4fa8 303d
00000130: 8461 233c b50b e43b dca1 b1bb b6f5 933b
00000140: e479 3d3d d72c 88bd 199e 2fbd 33ee 033e
00000150: 7953 81bd 9223 f3bd cd5b bf3d 6ec8 ec3d
00000160: 6638 67bd b5b2 f1bc cf41 1d3e 490a d7bd
00000170: 223c 2dbe 2602 fcbd 9d0a cb3d 88b9 50bb
00000180: 19d4 3ebc 0056 f13d 8fa9 ae3d 3b8b a3bd
00000190: 4408 763b b121 4c3e abf1 afbd 2207 2f3d
000001a0: 866f ebbc 9d7f c6bd 3bf2 cabd 5d83 f4bd
000001b0: e667 57bd 6ff7 f0bd 9a2f b9ba 5042 28be
000001c0: 6eb5 713d 09bd 823d 0062 153e 949b 93bd
000001d0: 2818 04be 86c0 ef3d 1556 1e3e 7958 14be
000001e0: 0bc1 5f3d f678 5b3d 41f0 863c f9ef 89ba
000001f0: e488 39bc ab28 a33d 588d babc f281 773d
00000200: f09a 593d f967 b33c 0897 2f3c 3eb4 0fbd
00000210: 353b ec3c f60e 663d 2747 4dbe fd6e 0a3c
00000220: 283d dc3d 6d3c 823c 97c0 863d b8a3 d93d
00000230: 2968 e23c d165 39bd 68c4 41be ff80 fcbd
00000240: 921a ac3c 7555 aabc 2b43 20be d2e3 18bc
00000250: 2267 80bd 1207 1ebd 68de 783d 106c 0e3d
00000260: c988 3f3d 373d 94bd 31f1 0abb 310c e23b
00000270: f1a2 bf3b 5f66 a13c b7d7 d1b9 acde e4bb
00000280: 3c37 e23b 8561 cd3c 5403 fa3b 87f8 1c3b
00000290: 1d0f 83bc 93f4 30bb 7d4d 173b d669 bdbc
000002a0: f099 34bd cb6f a63d 2aa0 5cbc 1917 9a3c
000002b0: 1ff5 86bd 88ab 83bd 4e7e 563d c5a8 8dbd
000002c0: 0b40 cebd dd4a 213d fb95 babb 7c00 aabd
000002d0: 6b09 bf3d 2c5e 6c3d d23c efbd b853 283d
000002e0: fc18 083e 8b95 933c fc7a 01be 9d20 8dbc
000002f0: ade1 533d 3e1d 343d d9c8 1b3e 2add 6f3c
00000300: e85f 24bc 595c 1c3d 5841 93bd 3ca5 bfbd
00000310: 51e7 9b3d 5e1f f2bc 7e0a 823d 4644 66bd
00000320: cb5d 0d3e bc82 7fbe 2cde 82bd 75ed 37be
00000330: 8736 e7bc e924 edbc d2d7 903c fe3e 66bd
00000340: 8740 05be 2d91 283b 45aa e73d c8be 753c
00000350: c381 4e3d fa13 6bbd fcc7 00be 3253 343c
00000360: 1147 863e 581e 053e 4ce1 ebbb 707a 833c
00000370: 58b4 4a3c 28ae 0ebd 242b 5bbd abc7 173e
00000380: b13c 303d ba35 693d 2620 9e3c 4a08 853d
00000390: 1969 823c 61d0 84bd 77e4 1c3d ea6c 153e
000003a0: e9d5 c23d 8991 903d b913 c2bd e255 313d
000003b0: 17ea 523d 3b5b 1bbe 6906 a33b 0ebf 843d
000003c0: e3a3 f93d c3b1 6d3d a005 bfbd c8b0 4dbb
000003d0: ae23 eebc e711 3e3d 6398 d13b 9086 923d
000003e0: 3454 3dbd fdcb 203d 6d0d 08bd 4ec4 5eba
000003f0: da0c 2dbd f2f8 733d 9592 0c3d bbff 093d
0.10419749 -0.11102734 -0.079569705 -0.046742857 -0.006819558 -0.014685396 -0.088636376 0.17904359
-0.05417664 0.16467017 0.1266179 0.063249655 0.20058526 -0.045940697 -0.13759185 0.07900804
-0.17917441 -0.13285258 0.041940644 -0.09472007 -0.07617272 0.13856657 0.034201078 0.13869025
-0.08202704 0.064067855 0.012809686 -0.1052083 0.005499147 0.08930138 -0.03819034 -0.054340962
-0.036313966 -0.032609485 0.16621788 -0.13795623 0.0030123622 -0.057564158 0.011462203 -0.08927189
0.010088037 -0.031561658 0.058808636 0.07645822 -0.05651718 0.014140908 -0.08422158 -0.008233219
-0.09603316 -0.07507096 0.0875229 -0.015958054 0.042224083 0.023341995 0.0059287604 -0.0648532
0.0076804194 0.06760291 0.028507758 0.020557519 -0.10069907 -0.026763579 -0.021055294 0.016598849
0.046999782 0.009975968 -0.04231783 -0.089988194 0.07924854 0.034302372 -0.02701525 -0.025018286
0.03168293 -0.05781316 0.059307717 0.04312926 0.00997198 0.0069594034 -0.0054209065 0.004515375
0.046258822 -0.066491775 -0.042875383 0.12883835 -0.06314749 -0.11872019 0.093436815 0.115616664
-0.05645027 -0.02950416 0.15357135 -0.105000086 -0.1691747 -0.12305097 0.09914134 -0.0031848866
-0.011647248 0.11783981 0.085284345 -0.079855405 0.0037541548 0.19934727 -0.085910164 0.04273141
-0.028739702 -0.09692309 -0.09909483 -0.11939118 -0.05258932 -0.11765944 -0.0014128566 -0.16431546
0.059010915 0.06383712 0.14588165 -0.072074085 -0.1289984 0.11706643 0.15462525 -0.14486875
0.05462746 0.053582154 0.016471984 -0.0010523788 -0.011324141 0.07966741 -0.022772476 0.06042666
0.053126276 0.021900164 0.010717161 -0.035084 0.028836826 0.05616661 -0.20046674 0.008449313
0.10753852 0.015897954 0.06579702 0.1062693 0.027637558 -0.045263115 -0.1892258 -0.123292916
0.021008763 -0.020792702 -0.15650623 -0.00933166 -0.06269671 -0.03858096 0.060758978 0.034771025
0.046761308 -0.07238238 -0.002120089 0.006898426 0.0058482816 0.019702135 -0.00040024307 -0.0069845524
0.006903557 0.025070915 0.0076297913 0.0023951845 -0.015998418 -0.0027001246 0.0023086958 -0.023121756
-0.04409212 0.081267916 -0.01346592 0.018809842 -0.06589722 -0.06429201 0.052366547 -0.06916956
-0.10070809 0.039378036 -0.0056941486 -0.08300874 0.09327968 0.057706997 -0.116815224 0.041095465
0.13290781 0.018015644 -0.12644571 -0.017227465 0.051728893 0.0439732 0.15213336 0.014640132
-0.010032631 0.038174007 -0.07190198 -0.09357688 0.076124795 -0.029555973 0.063496575 -0.056217454
0.1380531 -0.24952215 -0.06390032 -0.17961676 -0.028224243 -0.028948264 0.017681036 -0.056212418
-0.13012896 0.0025721297 0.11311773 0.014999099 0.05041672 -0.057392098 -0.12576288 0.011006163
0.26226094 0.12999856 -0.0071984883 0.016049594 0.012372099 -0.034834057 -0.05350794 0.14822261
0.04302663 0.056936003 0.019302439 0.06495722 0.015919255 -0.064850576 0.03830382 0.14592329
0.095134564 0.07059009 -0.09476418 0.043294795 0.051492777 -0.1517152 0.0049751294 0.06481753
0.12189462 0.058030855 -0.09327245 -0.0031385887 -0.029069748 0.04640379 0.0063963397 0.07154572
-0.04622288 0.03925704 -0.03321593 -0.00084978796 -0.042248584 0.059563585 0.03431948 0.03369115

623 f4 [24]
00000000: a049 7a3d 7dda 1d3e 7f9d 9e3d 4082 053e
00000010: cd75 3d3e 9536 a13e de8b 953e 453f 25be
00000020: c1c4 9cbb f435 ae3d 877b 893e 9fd1 ca3c
00000030: ce2a a63e 1e64 b03e c14c 72bd 6ebe 333e
00000040: b582 963e b68d 1dbd 4f5e a83d 7dd1 813e
00000050: 6cd6 893e a44d 293e e509 253e 6703 123e
0.06110537 0.15415378 0.07744884 0.13037968 0.18501969 0.31486955 0.29208273 -0.16137417
-0.004784197 0.085063845 0.26852056 0.024758158 0.32454532 0.34451383 -0.05915523 0.17553112
0.29396597 -0.038465224 0.08221113 0.2535514 0.26921403 0.16533524 0.16117056 0.1425911

625 f4 [24, 1, 3, 3]
00000000: 7148 2f3f 92f5 d6bf 08ca eabe f778 21c0
00000010: 63b8 cd3d f418 673e 53a0 0fbe 4bf1 5140
00000020: 25fb 87bf fafc 29bf 4401 2f3f d59f 26bf
00000030: 3dc7 4e3e b5f6 283f 4281 1d3f 1a59 08bf
00000040: e0c0 9abf 24d4 32bf 80ed 7f3e a646 34be
00000050: 77c6 1cbf e90b c03e 0f53 933d d465 7b3f
00000060: 10f1 6fbe 1eb8 e53f 7892 f03f fa5b b3ba
00000070: 3137 e63f e6e3 e63f e3fa b2bf 83b4 14c0
00000080: 026a 56c0 ed92 8abe dcea 933e 037c 0440
00000090: a1c1 f73f 859a e43d 986c 8dbf 30b5 c23e
000000a0: 08a9 7c3f e018 f2bf ac34 2b3f 7397 0b40
000000b0: 802b 4b3f f37d 853f e34d 2140 5f73 b13f
000000c0: 221c b3bf d773 393f 03ac 0abe c5cc febf
000000d0: a9af 98bf bff4 68bf b997 09bf aa9c b4bd
000000e0: 17a1 cebe 3766 2bc0 bad7 bdbf e2ed 0c40
000000f0: 456b 5cc0 e460 5440 6ffd 8240 85e4 39c0
00000100: e62f 2f3f 4138 b83f 29cd bc3f 491f da3f
00000110: fcf8 b3bf f2e6 3c40 6058 063f c746 1b40
00000120: f820 fe3f 28f1 4540 2b3f 5e3f 2a3a adbf
00000130: 417c 47bf 4318 03bf 03db 05bf d6ba cdbe
00000140: 3316 1fbe 281e e23e 7b40 3c3f 5f1b 52bf
00000150: f9f3 1b40 e119 d2bf fd4d ebbe b2b4 413f
00000160: 15b6 7ebf 51bb 8cbf 2953 8e40 8429 883f
00000170: 3009 8dc0 e4ea 9a40 d550 81c0 48b4 b43e
00000180: 9d44 80c0 402e bbbf 1f26 3140 8fff 6dbf
00000190: 46ff d7bf f7f2 a7bf b6b3 ac3e c746 76bf
000001a0: 2bd1 43bf d79e 163f 494b b73f e073 473f
000001b0: afb2 8e3f afdd 0b40 6412 383f bc4f ca3d
000001c0: 168a 46c0 d226 aa3d 233c a63e e404 bebe
000001d0: f056 8b3f 2af0 1240 61dc eb3f b6e7 73c0
000001e0: 86f3 3b3f 4c5d a9bf 48f5 4dc0 3653 8740
000001f0: 8a45 9440 bcf7 68c0 0427 07c0 facc 3bbf
00000200: 12d9 debf 9ef0 ad3f 1232 02c0 055e 63bd
00000210: a19f d93f 1224 93bf 18c6 a43f bfeb b53f
00000220: 348a 7a3f 0762 d7bf 7285 12c0 5dca 3340
00000230: 0eff 25bf 31f8 49bf 8f50 253f e6cc 2abf
00000240: 6852 1b3f 20c9 4bbf 0def 44bf 86c7 3cc0
00000250: 3a3c 91bf d057 61bf 9794 d6be 0426 303f
00000260: 9cc0 a43f 74fe 823d 288c e63f a51b 5ec0
00000270: 3ac3 56c0 15b3 23c0 31e6 3e3f 5f2d c1bf
00000280: 8592 5640 53ef 903f 7f3b 1cc0 b5cd 8b3f
00000290: d280 903f 66f4 3440 2566 71bf 0f35 0fc0
000002a0: 841c fcbe 9ff6 9a3e 5023 e9bd 367f 0640
000002b0: 6add 673f 051f 84bf b1df ff3f aa64 333f
000002c0: 827f b7bf ce22 043f 9a79 b5bf c586 cfbf
000002d0: e298 59be f215 3c40 2906 38be 853a 8fbf
000002e0: 3e9c 85bf 30d0 9d3f 7142 953e f58d 07bf
000002f0: a4c2 c8be 8cfb 0cc0 f530 443f ebc1 35bf
00000300: e648 1840 fb26 923f 5314 953f a64e 1cc0
00000310: a03c 3cbf fead 56bf 40ad b8bf 53c3 edbe
00000320: 8bee 90bf 8e4b 343e 0d41 a93c 9ac9 f8bf
00000330: 3bc7 d43f 9424 07bc be64 a4bf 97fd b2bf
00000340: c9e1 95bd 0c45 d13f 36b2 01c0 ed8c 033f
00000350: f3fb a93f a92b dbbe 9eb8 eebf c5c1 e23f
0.6846991 -1.6793692 -0.45857263 -2.523008 0.100449346 0.22568113 -0.14026003 3.2803524
-1.0623518 -0.66401637 0.68361306 -0.65087634 0.20193191 0.66001445 0.61525357 -0.5326096
-1.2090111 -0.6985495 0.24992943 -0.17605075 -0.61240333 0.37509087 0.071935765 0.9820225
-0.23431802 1.7946813 1.8794699 -0.0013684027 1.7985593 1.8038299 -1.3982815 -2.3235176
-3.3502202 -0.2706522 0.2889012 2.070069 1.9355966 0.11162285 -1.1048765 0.3802886
0.9869542 -1.8913841 0.66877246 2.1811187 0.7936325 1.0429062 2.5203788 1.3863333
-1.399296 0.7244238 -0.1354218 -1.9906241 -1.1928607 -0.9099845 -0.53747135 -0.08818944
-0.40357277 -2.6781137 -1.483146 2.2020192 -3.4440472 3.3184137 4.0934367 -2.9045727
0.6843246 1.4392167 1.475011 1.7040797 -1.4060359 2.9515958 0.524786 2.426195
1.9853811 3.092844 0.86815137 -1.3533375 -0.7792397 -0.51208895 -0.5228731 -0.40181607
-0.15535812 0.44163632 0.7353589 -0.82073015 2.436766 -1.6414148 -0.45957938 0.75666344
-0.99496585 -1.0994664 4.4476514 1.063767 -4.4073715 4.841173 -4.041117 0.35293794
-4.0083756 -1.4623489 2.7679517 -0.92968076 -1.6874778 -1.3121022 0.3373086 -0.9620175
-0.7649104 0.5883612 1.431985 0.77911186 1.114828 2.1854055 0.7190306 0.098784894
-3.102178 0.08308186 0.32467756 -0.37113106 1.0885906 2.2959085 1.8426629 -3.8110175
0.7341846 -1.3231597 -3.2180958 4.2289076 4.6334887 -3.6401205 -2.1117563 -0.73359644
-1.7409995 1.3589056 -2.034306 -0.055509586 1.700184 -1.1495383 1.2872953 1.4212569
0.9786713 -1.682679 -2.2893949 2.8092263 -0.6484231 -0.78894335 0.6457605 -0.667189
0.60672617 -0.7960377 -0.7692726 -2.949678 -1.1346505 -0.88024616 -0.4191024 0.6880801
1.287128 0.06396189 1.8011522 -3.4704373 -3.3556657 -2.5578053 0.74569994 -1.5091971
3.3526928 1.1323036 -2.4411314 1.0922152 1.1289313 2.827417 -0.94296485 -2.2376134
-0.49240506 0.30266282 -0.113836884 2.1015143 0.90572226 -1.0321966 1.999014 0.70075476
-1.4335787 0.5161561 -1.4177735 -1.6213003 -0.21249726 2.9388394 -0.179711 -1.1189734
-1.0438306 1.2329159 0.29152253 -0.52950984 -0.39211 -2.2028532 0.766372 -0.7099902
2.3794494 1.1418146 1.1646827 -2.4423003 -0.73530006 -0.8385924 -1.4427872 -0.46438083
-1.1322798 0.17606947 0.020660901 -1.9436524 1.66233 -0.008248467 -1.2843244 -1.398364
-0.07318456 1.6349196 -2.0265021 0.5138691 1.3280014 -0.42806748 -1.8650091 1.7715384

626 f4 [24]
00000000: 8f61 4c3e fcff f53e a537 5abf 9deb 063e
00000010: e437 30bf c843 7d3e 00b5 b23e 1cb2 4ebe
00000020: 3224 78be b5ba 1e3f a297 b13e f489 d03e
00000030: 8cb4 05bf 3aeb bbbe bc46 0f3e 21dd 9d3e
00000040: 06bc b53f cc8a 8f3d fb6b 423e 4818 acbd
00000050: fab6 c7bd 2cd9 a73d d6a3 963f 479d 313d
0.1995909 0.48046863 -0.85241157 0.13175817 -0.6883528 0.24732888 0.34903717 -0.20185131
-0.24232557 0.6200364 0.34686 0.4073025 -0.5222862 -0.367029 0.13991827 0.3083277
1.4198005 0.07008895 0.18986504 -0.08403069 -0.09751697 0.08195719 1.1768749 0.043362882

628 f4 [12, 24, 1, 1]
00000000: 9949 ee3e b421 eb3d 9df9 9b3d 2f15 363b
00000010: cc20 1cbf 72bf 2ebf 652e 0bbc 938e b83e
00000020: e731 46be b329 97be de37 7e3c bb0c 1bbf
00000030: 93c6 463e a33f 80be 002e fabc 7a4e ac3d
00000040: 8d66 8dbc d6dc 093e aea9 4fbd de5b 443e
00000050: cd90 d2bd 0e13 edbd 29eb bcbe 601f 9f3d
00000060: d22d 503e 4bee 4abf 4e05 c5be a3b3 04be
00000070: 99da 61be 87b7 bb3e 0cea 283f 6932 273e
00000080: dbb0 01bf 99cb a0bc 0c04 5bbe 46c0 383e
00000090: 8a47 adbd fe34 203e 801a 663e d556 b8be
000000a0: 41a9 60be 466a 86bc c2b9 a73b 7dfa 22be
000000b0: 97b2 4dbd b3d8 cebd 3ebf e63e d4da 7b3d
000000c0: 101d f13e 48d7 a13d 006a 7cbe ef0e 6c3e
000000d0: 0701 933e f5e2 fbbd 54a5 e23e 7354 b33e
000000e0: 5a5d 02be 77c9 a4bd 04ff 9c3e 1fff 173d
000000f0: 2c9b b33e 2f2e 473e 0fc5 db3d 1bb0 31be
00000100: 9b1b db3d af79 553e 0b36 83be 7320 bc3d
00000110: e8e0 7fbe d75f b13e deed 78be 2632 1cbe
00000120: 40ac 343e 9b64 fabc 57d0 9b3c 06a1 be3d
00000130: c92e 473d bba1 5ebd cc17 523e b8ed c8be
00000140: c858 683e 1305 4d3e 4bb3 873c f308 20be
00000150: d93e f33e 1146 853d 6f05 173e b163 253f
00000160: fd77 8c3e 9718 8f3d 732c 493e a6a7 26bf
00000170: 1769 f13e 230d 7f3e 5953 7bbe 1860 a53e
00000180: c2eb b03d 56c9 02be 3e7d d8bc 4548 a43e
00000190: 1776 9abe 773c 2ebe 66ff f2be 94c0 c7be
000001a0: 38ea 66be e355 7ebe 34f7 c93c ed47 0abd
000001b0: 257a 1bbe 7ca2 a8bd 4880 65be b033 243d
000001c0: 0861 983e bd18 c13d 6da7 91be 4ef2 bc3e
000001d0: 4fc8 47bd d7d0 9c3d 07ec e3be 3b15 15bd
000001e0: 0f1c 633e a6cc 843c 959e a9be 4139 a5be
000001f0: 8b35 a93c a63b 4f3e 123f 243f 689c 87bd
00000200: 59bf cebc e50f ee3e 2c29 c8be 7e2c d23d
00000210: 2698 6cbe af82 523e dc7d 34be 2155 02be
00000220: c26e 3ebe 3ebb 9d3d e39e 85be 9562 b8bd
00000230: b9bc 0e3d 3866 afbe 753a 82bc 4bd8 823c
00000240: 322e e03d ae26 4e3c 52d2 6ebe 9c19 be3e
00000250: fbc4 83be d9c6 9fbe d960 843e 09b4 3bbe
00000260: 2657 223f dc26 80bd 5020 3bbe 7f59 bc3d
00000270: 96aa 193f c959 093f 5a79 343e e521 9bbe
00000280: a89f 603e fa7d a23e 1d7a bf3d 422a 24be
00000290: 4a35 1e3f d48e 923e 7f38 2dbd 4a88 89be
000002a0: 84a4 9bbd 9fca 56bd 1072 a8bd acaa 2d3e
000002b0: 35e0 fcbd 09d3 953e 836d dbbe 5700 40be
000002c0: fb05 4e3e 8436 c1be 278b d3bc d3c5 883e
000002d0: 0bff 2ebc 6c56 10bd 3684 8cbe eefd f3bd
000002e0: 6eb0 4b3e 5547 9a39 8947 a83e 7c47 783d
000002f0: b4a1 073e f806 f03d c915 2c3d 6a21 9cbe
00000300: f1b9 20be 11dd 953e 5868 1f3e 6f6a d13d
00000310: ac9c 223e eda2 2b3e 769d cb3e ee1c 9cbe
00000320: 3082 8a3e 68b0 3dbe 1895 0ebf 10b3 413e
00000330: eea9 09bc 60f5 c33e 6c44 0a3e dcd0 ddbc
00000340: 7836 2dbe c2e3 a23d 0dfb c3be da9d 40be
00000350: b258 be3d de80 9dbd c5d1 9e3d c22d 62bc
00000360: 927c 34be d887 d63e aa6a a6be 7565 08be
00000370: c118 27be bfc9 afbe 13af d83d 812a 073e
00000380: 25b8 90ba df94 5d3d d300 18bf 2aca 95be
00000390: be06 0a3e f6d7 3fbd f030 bdbd 4826 063e
000003a0: 059d 6bbe 2d2b 36be 7c11 efbe 4d48 323e
000003b0: f0f4 a13e 5f99 e2bd cedf df3e a594 a73e
000003c0: 0a2b b2bb 0061 b33e 4af6 9fbb b89d 053c
000003d0: ea43 94bc edf0 7bbd f665 d63e 936d 50be
000003e0: 8cdb 22be 4013 e33e 3d89 94bd 8619 073c
000003f0: b575 913d 9940 f0bd b3fe 303e c905 a13e
0.46540526 0.11481038 0.07615969 0.0027783622 -0.60987544 -0.6826087 -0.008494948 0.36046275
-0.19354974 -0.29524 0.015516249 -0.605663 0.19411688 -0.2504855 -0.030539513 0.08413406
-0.017260814 0.13463148 -0.05069893 0.1917567 -0.10281525 -0.115759 -0.36898163 0.07769656
0.20329979 -0.79269856 -0.3848061 -0.12959151 -0.22056045 0.36663458 0.6598213 0.16327824
-0.50660485 -0.019628333 -0.21388263 0.18042096 -0.084609106 0.15645215 0.22471046 -0.36003748
-0.21939565 -0.016408097 0.0051185796 -0.15915866 -0.050219145 -0.10099926 0.4506778 0.061487988
0.47092485 0.0790239 -0.24649811 0.23052572 0.2871172 -0.12299148 0.4426676 0.35025367
-0.12730923 -0.08046239 0.3066331 0.037108537 0.35079324 0.19451211 0.10730945 -0.17352335
0.10698625 0.208472 -0.2562717 0.09185877 -0.24988139 0.34643432 -0.24309489 -0.15253505
0.17643833 -0.03056555 0.019020243 0.093080565 0.048628602 -0.054353457 0.2051689 -0.39243865
0.22690117 0.20021467 0.016564986 -0.15628414 0.47508886 0.06507505 0.14748167 0.6460524
0.27435294 0.06987112 0.19645862 -0.6509956 0.4715049 0.24907355 -0.24543513 0.32299876
0.08638717 -0.12772116 -0.026426908 0.32086387 -0.3016822 -0.17015253 -0.4746048 -0.39014113
-0.22550285 -0.2483745 0.024654008 -0.03376 -0.15183313 -0.082341164 -0.22412217 0.040088356
0.2976153 0.094285466 -0.28448048 0.36903614 -0.048775014 0.076570205 -0.44516012 -0.0363972
0.22178672 0.016210865 -0.331288 -0.32270244 0.020655414 0.20237598 0.6415874 -0.06621629
-0.025237726 0.46496502 -0.39093912 0.102623925 -0.23104915 0.20557664 -0.17626137 -0.12727787
-0.18596938 0.07701729 -0.26097783 -0.09003178 0.03484795 -0.34257674 -0.015897015 0.015972277
0.10946311 0.012582464 -0.23322418 0.37128913 -0.25736222 -0.31206396 0.2585514 -0.18330397
0.6341423 -0.06257412 -0.18274045 0.091967575 0.6002592 0.53652626 0.17624417 -0.30299297
0.21935904 0.31736737 0.09349463 -0.16031745 0.6180006 0.28624594 -0.042290207 -0.26861793
-0.07599738 -0.05243933 -0.08224881 0.16959637 -0.123474516 0.2926257 -0.42856988 -0.1875013
0.20119469 -0.37736905 -0.025823189 0.26713428 -0.010680924 -0.03523867 -0.2744462 -0.119136676
0.19891521 0.00029426315 0.32867077 0.060615048 0.13245279 0.11720079 0.042012963 -0.30494243
-0.15695931 0.29270223 0.15567148 0.10225379 0.15880078 0.1676137 0.3976857 -0.30490822
0.2705245 -0.18524325 -0.5569625 0.18915963 -0.008402331 0.38273144 0.13502663 -0.027077131
-0.1691531 0.079535976 -0.38277474 -0.18810216 0.09294261 -0.07690595 0.07754854 -0.013804855
-0.17625645 0.41900516 -0.32503253 -0.13319953 -0.16318037 -0.34333608 0.10580268 0.13199808
-0.0011041207 0.054097053 -0.5937626 -0.292558 0.13479134 -0.046836816 -0.0923785 0.1310054
-0.23009117 -0.17789908 -0.46693027 0.17410393 0.31632185 -0.110644095 0.43725437 0.32730594
-0.0054372596 0.35034943 -0.004881655 0.008155279 -0.01809879 -0.06150906 0.41874665 -0.20354299
-0.15904063 0.44350624 -0.072527386 0.008245831 0.07102529 -0.11731071 0.1728466 0.31449726

629 f4 [12]
00000000: 23ac 5b3f 9b24 823d ea46 29bf ebf7 65bf
00000010: 36e0 873f 19f0 97be ee6c 23bf f4c5 9e3e
00000020: 8d09 8bbe 9efa 483e 7664 11bf 43a5 e13d
0.85809535 0.06354638 -0.6612383 -0.8983142 1.0615299 -0.29675367 -0.6383809 0.310104
-0.27155724 0.19626853 -0.56793916 0.11017849

631 f4 [48, 12, 1, 1]
00000000: 568c a93c 7fb6 943d f253 123d e480 053d
00000010: ea74 dcbc ad9e bfbc b946 b83d 2673 503d
00000020: 8833 a0bd fb77 7b3d 559d 4b3c 5e37 12bd
00000030: a841 24be 20f2 e73c bbf5 c9bc 5b29 05be
00000040: 9af9 3c3d ff60 4a3d 4391 fdbd c281 c53c
00000050: 22a0 44bb 36de d93b 09a3 9b3d cab4 e2bb
00000060: 9468 48bd 32c0 88bc 327c 143c 70af 563d
00000070: 814c 863d 4115 06bd 9588 af3c c3ef 9dbd
00000080: ccf3 173d c0f6 ec3c d599 763d e2d2 cbbd
00000090: f65e 9cbc 5943 38bd 9890 c0bc 582f 4e3c
000000a0: 1c43 743c 364e 39bd 1ace 4e3d 5812 30bd
000000b0: 4a81 49bd dc7d 84bd d5be 47bd d09c 1f3d
000000c0: 62d3 df3d fc83 c23c a3a2 79bd 045b 623d
000000d0: 8b02 2e3e 0231 04bd 6df1 d6bc 5c60 d03c
000000e0: b78a 88bd 7e04 c1bd ca21 c4bd 2607 cb3d
000000f0: edbf bf3c 89fa c03c 1725 583d fbff 5abd
00000100: f2e7 4ebd c503 c13d 825f 243d 922a a2bc
00000110: 417e 65bd fa2c e6bc acc8 e3bd 0c61 14bb
00000120: e694 96bc 701f 913d dba9 913d 9397 aa3d
00000130: e0f1 5b3d 5aaa b83d dd65 aa3c 5421 ba3c
00000140: e390 523d 6755 c1bd e075 d93b ef19 81bd
00000150: 4442 1c3c bfe4 05bd 512e 3d3c f746 dc3d
00000160: fb94 f93c cfbc 9d3c d702 8abc 8184 24bd
00000170: 8175 9cbb 8dfd c7bc 79b2 0d3d a8bc 1b3d
00000180: bfe3 6b3d 410e 943a cab2 e9bc bfa5 893d
00000190: 918d 0cbd 108b a1bd b563 0cbd e502 1f3d
000001a0: bb49 86bb 3bd7 b2bb a1f9 37bd a4b6 563d
000001b0: 3749 943c e196 993c 3696 15bd d4cf 05bd
000001c0: 4f1a 82bd 139d cf3d 3b0d 213d bc5a 65bd
000001d0: 2e17 663d 81f3 783d 6c5a 8c3d 1342 d53c
000001e0: d796 6dbc 7978 383d 1996 c1bd e4cb 3cbd
000001f0: 4abd 61bd b377 7b3d e6e3 053d 4a23 cd3d
00000200: aff4 b4bb 3411 05bd a02c 0abd a1ce 033d
00000210: 920d 34bd 7990 c5bd ed47 5f3c 99a9 d4bc
00000220: 033d 8fbc 2e38 c5bd 7570 ca3d 82ba 6b3b
00000230: 9f8c 8dbd 2937 5a3b 3a60 133d 9fbe 403d
00000240: 142f cdbc 247c 3fbd 01d7 b13d 4733 9c3d
00000250: 0413 903d b736 62bd 5af9 fe3c 850e a9bc
00000260: fa32 2fbc 63ca 3abc 78d1 3b3d fc4c f8bc
00000270: d2f7 013d 830e 923c b1a3 673d 0a6b fc3c
00000280: 9d1c f63d aad2 f43c be93 88bb dc9f 00bd
00000290: 694b b6bc 1277 6e3d 562e b43d 5549 02be
000002a0: 9b7b 2e3d 0bb0 38bd f1a1 38bd 0065 db3d
000002b0: 832d 3ebd d49b bd3c c4ee 853d b214 2b3d
000002c0: 76dc 07bc 3248 5bbd 66fe d8bc c9ff 0a3c
000002d0: 979b 1b3e e109 2bbb 2da9 623d a9d6 8e3d
000002e0: 86ed 5dbd 8b7e df3c c959 0fbe 46d3 6cbd
000002f0: 4308 003c 44b6 953d fe20 513d ed6d 773d
00000300: cdd5 a6bc 3a44 46bd 515b 903d f68a b43c
00000310: a798 e83c 316a 78bc d571 813c 5226 d4bd
00000320: e0c9 cd3d ca4c c03d 1776 0c3d 7aa6 b73c
00000330: 4af7 a6bc 3a9d 953d 84ea e23c 0130 4c3d
00000340: 8c25 c3bd dae4 a3bd 6348 82bd ccdb 5b3d
00000350: 2c3b 9cbd a0a5 64bd 989a 5b3c b3e3 19bd
00000360: 7ced f83c d3d8 f9bd c735 26bc abe1 34bd
00000370: 5c7f dc3c 128e b2bd c715 a23d 300c 78bd
00000380: 6a34 1d3d 2903 a6bd 7c92 0f3d fdd8 d23d
00000390: 2a24 493d a5a7 423d 121d 353d 73a1 22bc
000003a0: 79c4 bcbd dbb9 283d e126 843c 9b73 293d
000003b0: 0e19 5dbd e877 0bbd 0391 faba 7e77 11bc
000003c0: 3d6e d8bc 1e55 0cbd 7de0 6fbc 4b20 87bd
000003d0: e33b 493d 2d40 b1bc 9282 0cbd 065b 2abd
000003e0: 9460 95bc a957 40bb 4c91 12bd 1969 72bc
000003f0: 15be 82bc 32e7 293d 4e55 993c 2413 2e3d
0.0206968 0.07261371 0.035724588 0.032593623 -0.026911218 -0.023391092 0.08997864 0.050891064
-0.07822329 0.06139372 0.012427648 -0.035697334 -0.16040671 0.028313696 -0.024653306 -0.13004057
0.046136476 0.04940891 -0.12381222 0.024109725 -0.0030002673 0.006648804 0.07599456 -0.0069185244
-0.04892786 -0.016693208 0.009062814 0.052413404 0.06557561 -0.032735113 0.021427432 -0.077117465
0.037097737 0.028926253 0.0602053 -0.09952332 -0.01908825 -0.044986103 -0.023506448 0.01258453
0.014908578 -0.045240603 0.050489523 -0.042986244 -0.049195565 -0.06469318 -0.048765976 0.038967907
0.1092899 0.023744576 -0.060946118 0.05526258 0.16993158 -0.0322733 -0.026238168 0.025436573
-0.06667083 -0.09424685 -0.09576757 0.09913473 0.023406947 0.023556964 0.052769747 -0.05346678
-0.05051417 0.09424547 0.040130146 -0.01979569 -0.05602861 -0.028097618 -0.111222595 -0.0022640852
-0.018381547 0.07086074 0.071124755 0.08329692 0.053697467 0.09016867 0.020800525 0.02272097
0.051407706 -0.09440117 0.0066363662 -0.063037746 0.009537283 -0.032688852 0.011546687 0.10755723
0.030466547 0.01925507 -0.016847057 -0.040165428 -0.0047747497 -0.024412895 0.034594033 0.038021713
0.057590242 0.0011295752 -0.028527636 0.06721067 -0.034314696 -0.07887852 -0.034274776 0.03882112
-0.004098145 -0.0054577864 -0.0449158 0.052420273 0.018101318 0.018748702 -0.036520205 -0.032668903
-0.06352674 0.101373814 0.03931926 -0.055994734 0.05617445 0.0607791 0.06853184 0.026032483
-0.014501295 0.045036767 -0.09452457 -0.046092883 -0.05511216 0.06139345 0.032688044 0.100164965
-0.0055223326 -0.03248711 -0.033733964 0.03217948 -0.043958254 -0.096466966 0.013627988 -0.025959777
-0.017485147 -0.09629856 0.09884731 0.0035969322 -0.06911587 0.0033297038 0.03598044 0.04705679
-0.025046863 -0.04674925 0.08683587 0.07626968 0.07034877 -0.05522796 0.03112476 -0.020636806
-0.010693306 -0.011400792 0.04585406 -0.030310147 0.03173048 0.017829185 0.056552593 0.030812759
0.12017176 0.029885609 -0.004168003 -0.031402454 -0.022252755 0.058219023 0.087979004 -0.12723286
0.042598348 -0.045089763 -0.045076314 0.107126236 -0.046430122 0.023145594 0.065396816 0.041767783
-0.008292308 -0.053535648 -0.026488494 0.0084838355 0.15196072 -0.0026098418 0.05533712 0.06974537
-0.054181598 0.02728202 -0.13999094 -0.057818674 0.00781447 0.07310155 0.051056854 0.060407568
-0.02036562 -0.04840491 0.07048667 0.022038918 0.028393103 -0.015162037 0.01580135 -0.103588715
0.1004827 0.09389646 0.034292307 0.02241825 -0.020381588 0.07305379 0.027699716 0.049850468
-0.09528646 -0.08002634 -0.06361463 0.05367641 -0.07628474 -0.055822015 0.013403557 -0.037570667
0.030386679 -0.12199559 -0.010144657 -0.044160526 0.026916198 -0.08718504 0.0791431 -0.060558498
0.038380064 -0.081060715 0.035051808 0.102952935 0.049106754 0.04752316 0.044217177 -0.009926188
-0.09217162 0.04119287 0.01613182 0.041370016 -0.053978972 -0.0340499 -0.0019116703 -0.008878587
-0.026419753 -0.03426086 -0.0146409245 -0.06597956 0.049129378 -0.021637047 -0.03430421 -0.041590713
-0.018234529 -0.0029349125 -0.035783097 -0.014795565 -0.015959779 0.04148025 0.018717434 0.042498723

632 f4 [48]
00000000: 98de 8bbd 49eb eabc d7a2 f1ba 38b8 f63c
00000010: e67c e13b d13e ac3e b432 09be a9cf ce3d
00000020: fd8a c1bc 0af8 103e 7ee3 b53d 37e1 00be
00000030: 3d9e 553d a621 ae3d b03a 4c3e 725a 16bc
00000040: 94b1 f43d 11c2 2abe 2358 363e 4484 4b3d
00000050: b167 563e fb89 643e c673 13bd 5003 073d
00000060: d096 b53c 6f54 9f3d 650c 04bd d75a b63d
00000070: 97d0 94bd 49aa fdbb 5887 033e 1208 dd3c
00000080: 6478 8b3e bd43 6a3d f324 eebd d014 dc3d
00000090: 25aa 943e c266 b43d 6f5e 003e 83c7 e23d
000000a0: c5b7 313d 7f23 b4bc d86e 2fbe 8fe0 343e
000000b0: 4964 ed3d 1f30 65bd a659 ae3e 2e7b ff3c
-0.06829566 -0.028676646 -0.0018435371 0.03011714 0.006881344 0.33641675 -0.13398248 0.10098202
-0.023625845 0.1415712 0.08881281 -0.12585913 0.05215286 0.08502512 0.19944263 -0.009176837
0.11947933 -0.16675593 0.17807059 0.049686685 0.20937993 0.2231826 -0.035999082 0.032962143
0.02216664 0.07779776 -0.032238383 0.08904045 -0.07266348 -0.007741247 0.12844598 0.026981387
0.27240288 0.057193507 -0.11628141 0.10746157 0.2903606 0.08808662 0.12536024 0.1107321
0.043388147 -0.021989582 -0.17132127 0.17663787 0.115913935 -0.055954095 0.3405277 0.031186666

634 f4 [48, 1, 3, 3]
00000000: 3226 33be cdef 43bf 0964 7bbf 3287 1040
00000010: 87a2 8ebf 34a6 c8bf 3102 f23f eebe 4abf
00000020: 06ef d7bf fba5 dd3e e37e 873e dc4f ad3e
00000030: 1341 6a3f 0ab1 ba3f 8da3 e03f b5a3 05bf
00000040: c776 ca3f fc3e b73f 5841 94bf 2ad4 933d
00000050: 81a0 c8bd 243f 653f f8b4 ccbe 1ca7 bfbf
00000060: 4be9 80be 7e16 ea3f ea74 0c40 ddf1 9abd
00000070: b246 503f 6995 313f 8f60 203e 2281 92be
00000080: 8912 afbf d98e 98bf e6a3 33bf 4e08 49bf
00000090: 4b26 9fbd d048 313f 4658 b0bd d9fb 193e
000000a0: 601a 353f 6c60 8a3f 462d d83d 0fc9 193f
000000b0: ea6b 7b3f 4188 a1be 1f26 a6be 6409 41bf
000000c0: b0b5 aebf b825 a5bf 3069 67bf 240d 54bf
000000d0: a7ee 8dbf 7983 e7be bf40 b63f c353 0240
000000e0: fc04 cf3f 1eb5 6c3d b911 f43f 73ef 1640
000000f0: 8acb a6bc d742 053f 8c74 99be 8e7f 88bf
00000100: e19c f1bf 3c40 853f bb5c 35c0 a666 b4bc
00000110: 534d 0640 7d36 1ac0 b244 f83f 293f ac3f
00000120: 4a49 083f ee72 513e 5201 873f 8190 8bbf
00000130: 2a34 2fbf 3604 6e3f 5c54 09be 4ade dbbf
00000140: 52e7 a3bf fec8 843e 09bb 0a40 faac 513e
00000150: b9ab b03f 565d 9f3f 5fbe 4fbf 887e ca3f
00000160: c710 c13e 816c a9bf b1b5 843f c101 293f
00000170: 8350 373f 6e3c a43f f55f bb3f efc4 a93f
00000180: 6b1c fc3d 15f3 e73f 0fda 043f 2d0e a9bf
00000190: c7dd 26bf c665 eebe 59c3 6cbf f830 67bf
000001a0: 2131 84bf feef e73e 36d2 97bf 86fb bebe
000001b0: 2a53 d1bd 2327 1cbf ecfd 36bf d085 523f
000001c0: 160a c43f a8dd f43f afcc 6ebf 2226 55bf
000001d0: d809 9abe 8b10 593e 40d2 7a3f 87e4 40be
000001e0: f7b2 8cbf b0a1 ddbf 0fde 1f3f 4959 903f
000001f0: 16d4 0a40 0286 563e b28f 9ebf fad7 5abf
00000200: a89b 923e ffeb 6abe 2ad6 20be abd0 113e
00000210: 0fe5 fe3e ba54 0640 5966 b53f 3ccf fcbe
00000220: ecde ccbf b457 eabf 0a9f df3e 17e1 923d
00000230: ecf5 c6bf 4e51 293f fe68 943f 21c9 183f
00000240: 3e98 a6bf 01c3 103f e384 d93f adea 45bf
00000250: fb1b b1bf a94a 923f 4869 ec3e 1c6a 113e
00000260: e0a3 8ebf ed21 38bf 6a7f f1bf 93d4 e5bd
00000270: c8fe c7bf ad45 97bf de11 74bf e8b9 94bf
00000280: 803c 88bf 4387 2ebf 7944 4a3f b845 9e3e
00000290: a236 eebe 4cd8 9fbf 9d2c b2bf 570e 053f
000002a0: 0dcb ce3b c38c 7d3f d8c8 9f3f 80a5 3fbf
000002b0: c888 17bf 9ff4 54bf 4226 5f3e 6c55 ecbf
000002c0: 4d50 8cbf fabb 913e 75bc f03f 741e 2f3f
000002d0: effb ddbf 4bb8 24c0 6289 fa3f 71c5 fcbe
000002e0: a88d 15bf c0d5 3140 3cfa 94bf 1771 cf3f
000002f0: 8ffd 3540 df84 d43f d078 09bf caa8 a5bf
00000300: 522e c93f c51a 3b3f 44f4 0ac0 5d56 a13f
00000310: 855f 1f3f 0a7e 05c0 155d 5fbe 16c0 3dbf
00000320: a90e 1bbf 47cd 2240 3283 733f 3cd5 e9bf
00000330: 3881 c93f 6db7 823f ed0b 72bf c2ae 443f
00000340: a88d ab3f b3cd aebf 2511 58bf 8f3c 983f
00000350: 76b7 f33f 11ed 343e 1561 b4bf 0bf8 b03e
00000360: 5f73 993f 1660 733f 9302 073f 3325 963f
00000370: a061 533f f77f 363f f274 4f3e 1280 cd3e
00000380: ccab 263e 12b6 05bf 311d d13f a95f 823f
00000390: dc9f 813f c34e 4e3f dc10 a13f 6d9d b23f
000003a0: 8a90 173e 2964 a3be fe02 41bf 54e9 3cbf
000003b0: ce22 c2bf 1100 23bf eca0 0fbf bda2 3abf
000003c0: d31f d6be 1b3e 1fbe 18cf 8d3e 1c44 053f
000003d0: 3691 1540 8350 f4bf bc85 9bbf fa8e 3040
000003e0: cd42 0dbf 57af 27be 2b91 aebf c171 6a3f
000003f0: 5353 573f 36bb a93f e9d0 953f 319a 7dbe
-0.17495039 -0.7653778 -0.98199517 2.2582517 -1.114335 -1.5675721 1.8906919 -0.79197586
-1.6869819 0.43290696 0.26463994 0.3384999 0.91505545 1.4585278 1.7549912 -0.5220292
1.5817498 1.4316096 -1.1582441 0.072182015 -0.09796239 0.8954947 -0.39981818 -1.4972873
-0.25177988 1.8288114 2.1946359 -0.07565663 0.8135787 0.69368607 0.15661834 -0.28614146
-1.3677531 -1.1918594 -0.70171964 -0.78528297 -0.07770976 0.6925173 -0.08610587 0.15037479
0.7074337 1.0810676 0.1055551 0.60072416 0.9821154 -0.31549266 -0.3245096 -0.75404954
-1.3649197 -1.2902136 -0.9039488 -0.8283255 -1.1088456 -0.45217493 1.4238509 2.0363624
1.6173396 0.057789914 1.9067909 2.3583648 -0.020360727 0.52055115 -0.2997173 -1.0663927
-1.8876001 1.0410228 -2.8337848 -0.022021603 2.0984695 -2.4095757 1.9395964 1.3456775
0.5323683 0.20453998 1.0547278 -1.0903474 -0.6843897 0.92975175 -0.13411087 -1.7177212
-1.2804968 0.25934595 2.1676657 0.20476142 1.3802406 1.2450359 -0.8114986 1.5819864
0.37708113 -1.3236238 1.0367948 0.660183 0.71607226 1.2830942 1.4638659 1.3263224
0.12310108 1.8121058 0.5189523 -1.3207451 -0.65182155 -0.46562022 -0.92485577 -0.90309095
-1.0327493 0.45300287 -1.1861026 -0.37301272 -0.102209404 -0.6099722 -0.71481204 0.8223543
1.5315578 1.9130144 -0.9328107 -0.8326131 -0.30085635 0.21197717 0.97977066 -0.18837176
-1.0992116 -1.7314968 0.6244821 1.1277248 2.1691947 0.20949557 -1.2387602 -0.85485804
0.2863438 -0.22941588 -0.15706697 0.14239757 0.49784133 2.0989213 1.4171859 -0.49376857
-1.600553 -1.8308015 0.43676025 0.07171839 -1.5543799 0.66139686 1.1594541 0.596819
-1.3015211 0.5654755 1.6993679 -0.7731121 -1.3836664 1.1429034 0.46174073 0.14200634
-1.1143761 -0.71926767 -1.8867009 -0.11222186 -1.5624628 -1.1818138 -0.95339763 -1.1619234
-1.0643463 -0.68175143 0.7901073 0.30912566 -0.46526057 -1.2487884 -1.3919865 0.51975006
0.0063108266 0.9904291 1.2483168 -0.7486191 -0.59193087 -0.8318576 0.21791938 -1.8463569
-1.0962006 0.28463727 1.8807513 0.6840584 -1.7342509 -2.5737484 1.9573176 -0.49369386
-0.58419275 2.7786713 -1.1638865 1.6206387 2.843601 1.6603049 -0.5369997 -1.2942135
1.5717261 0.7308772 -2.1711588 1.2604481 0.62255126 -2.0858178 -0.21812852 -0.74121225
-0.60569245 2.5437791 0.95122063 -1.8268199 1.574256 1.0212227 -0.9454945 0.7682916
1.3402605 -1.3656524 -0.8440116 1.1893481 1.9040363 0.17668559 -1.4092127 0.34564242
1.1988333 0.9506849 0.527383 1.1730102 0.8257084 0.7128901 0.20259455 0.40136772
0.16276473 -0.5223094 1.6337034 1.0185443 1.012691 0.8058893 1.258327 1.3954293
0.14801231 -0.31912354 -0.7539519 -0.7379353 -1.5166872 -0.63671976 -0.5610492 -0.7290457
-0.41821155 -0.15551035 0.27697062 0.5205705 2.336988 -1.908707 -1.2150187 2.7587266
-0.55180055 -0.1637548 -1.3638052 0.91579825 0.8411152 1.3260257 1.1704379 -0.2476585
